app/src/main/ml/model.tflite (tflite, 160120 bytes, 10 tensors)

dense_1/bias f4 [4]
000000 98 91 cf bc ad 40 b8 3c d5 2f 0a bc 81 bf 23 3c
       -0.02533798 0.022491777 -0.008434256 0.009994389

dense/bias f4 [128]
000000 54 8e 91 3c e8 5e b6 37 b0 c3 c4 bb 4a 2d 1a 3c
       0.017768063 2.1740285e-05 -0.006004773 0.009410212
000010 03 a2 a8 bb 69 ee f9 bb c3 06 d2 3c d8 90 99 3c
       -0.0051462664 -0.0076272977 0.02563799 0.018745825
000020 45 47 39 3d fc a8 ca bc 16 26 91 bc 82 c5 03 3c
       0.045233984 -0.024738781 -0.017718356 0.008042695
000030 19 84 94 bb 21 47 86 bc f3 62 c6 bc 35 b4 10 bc
       -0.004532349 -0.016391339 -0.024217105 -0.008832027
000040 76 09 85 bc 43 6a b8 3c 61 8a b9 3c 28 83 70 bc
       -0.016239863 0.022511607 0.022648992 -0.014679708
000050 f4 a9 42 bc 0d ef 99 3a 61 27 22 3c b4 a0 90 3c
       -0.01188134 0.0011744216 0.009897084 0.017654754
000060 53 e2 81 bc 40 22 46 3c 00 00 00 00 1e 3a 5a ba
       -0.01585499 0.012093127 0.0 -0.00083247
000070 a7 b4 c8 3c a4 b6 86 3b d8 03 fa bb 36 a7 3e 3c
       0.024500204 0.004111128 -0.0076298527 0.011636546
000080 f9 c5 c4 bb e5 52 8b bb 9e 53 58 bc 00 00 00 00
       -0.0060050455 -0.004251825 -0.01320353 0.0
000090 33 75 12 3d c8 48 57 3c f9 ba 00 bd 56 fd 80 bc
       0.0357563 0.013139911 -0.03142831 -0.0157458
0000a0 c3 f0 94 bb e5 3a 10 bd 4e a5 a5 3c f4 d6 06 3c
       -0.0045453026 -0.035212416 0.020220425 0.00822996
0000b0 be 80 92 bc 86 74 04 bc a6 eb 61 3c c7 d7 31 3c
       -0.017883655 -0.008084422 0.013789093 0.010854668
0000c0 05 71 ba 39 d1 55 46 3c 88 59 f7 39 e7 c3 2a bc
       0.0003556089 0.012105421 0.00047178217 -0.010422683
0000d0 f3 9d b3 bb df 46 d8 bc fa ad c1 3c 5f d2 15 bb
       -0.0054814755 -0.026400981 0.023642529 -0.0022860987
0000e0 5d 21 94 3c 00 72 be bc e4 1e 05 bc b7 79 56 bc
       0.018082315 -0.023247719 -0.008125041 -0.0130905425
0000f0 00 00 00 00 02 22 93 ba 8d a3 64 bc 2c e6 0a 3c
       0.0 -0.0011225345 -0.013955009 0.008477729
000100 7e 62 d9 bb f2 fa 48 bc 90 49 80 3c 9d a9 98 3b
       -0.0066340556 -0.012266861 0.015660077 0.0046588914
000110 00 00 00 00 61 cd 06 3d 72 83 02 3d 71 32 56 3b
       0.0 0.03291071 0.031863637 0.0032683874
000120 fc b7 21 3b 91 f6 8a 3c e9 f6 83 bb 8e 9f fa bc
       0.0024676314 0.016963275 -0.0040272367 -0.03059366
000130 6d 71 8e 3c d7 2d 81 3c 00 00 00 00 a1 1c 8b bc
       0.01738807 0.015768928 0.0 -0.016981425
000140 b8 4f 89 bc 95 8d 25 bc e9 91 d2 bb d8 df 95 3a
       -0.016761646 -0.010104557 -0.0064260853 0.0011434508
000150 93 8c 3f 3b 0d 48 12 bc 06 9d 6a 3c 0f 53 8f bc
       0.0029228076 -0.008928311 0.014319664 -0.01749566
000160 05 73 51 bc 00 00 00 00 aa f5 5e 3d c1 ae f8 bb
       -0.01278377 0.0 0.054433502 -0.0075891917
000170 ab 38 dc 3b 4c 3b 0a 3d b9 8c 0f 3a ec e6 c1 3b
       0.0067206225 0.033747956 0.00054759864 0.0059174206
000180 3f 40 7a bb 00 00 00 00 9d 24 06 bd 40 87 11 bc
       -0.0038185266 0.0 -0.03274976 -0.008882344
000190 b7 61 cb 3b 00 00 00 00 a9 44 9e 3c 24 e5 c8 bc
       0.006206717 0.0 0.01931985 -0.024523325
0001a0 08 c1 b9 3c a4 ef 8e 3c 64 3c 03 bc b3 72 82 3c
       0.022675052 0.017448254 -0.008010004 0.015923833
0001b0 65 d7 83 bb a0 c0 c4 3c 58 d0 e2 3c 00 6b dd 3c
       -0.0040234798 0.024017632 0.027687237 0.02702856
0001c0 e7 0b cb bb 17 bc b8 bc 9f e6 ec bb ed ca e9 3b
       -0.006196487 -0.022550626 -0.0072296406 0.0071347863
0001d0 91 d1 65 bc a9 78 d4 bc ad 82 c9 3c d9 be 21 3c
       -0.014027015 -0.025936441 0.024598444 0.009872162
0001e0 00 00 00 00 00 00 00 00 d9 66 a6 bb 7e 12 a5 bb
       0.0 0.0 -0.0050781784 -0.005037605
0001f0 c2 97 11 3b 1f ac 1d 3d 30 35 8b bc d3 04 ab bb
       0.00222157 0.038494226 -0.016993135 -0.005219081

conv2d_2/bias f4 [32]
000000 e8 d8 1a 3a b8 9c 04 3d 9d b6 ee bb a1 6b 15 bc
       0.00059069553 0.03237602 -0.007284953 -0.009119899
000010 c8 1b 6a bb 00 00 00 00 74 b3 07 bc a4 22 ba 3c
       -0.0035722125 0.0 -0.008282531 0.022721596
000020 cb 83 5e bc 4e b9 9b bc 54 de ff ba 00 00 00 00
       -0.013581227 -0.019009259 -0.0019521215 0.0
000030 8d 34 6f bc ba 4a 70 3c 67 ac 2f bb 30 1e a8 3c
       -0.014599931 0.014666254 -0.002680564 0.020522207
000040 56 97 f9 bb 5c ae 3c 3b fc 8f 68 3c e4 c1 cd 3c
       -0.0076169176 0.002879045 0.014194485 0.025116868
000050 56 e8 1d bc c7 99 ba bb 8b 16 31 3c b1 69 b4 bc
       -0.009637913 -0.005694601 0.010808597 -0.022023054
000060 fb dc bf bb 29 b5 13 bc e1 78 10 3d b1 9c 49 bc
       -0.0058552003 -0.00901536 0.03527153 -0.012305425
000070 60 61 06 bb a5 88 8c 3c 20 fe 87 bc 4b f2 ee 3b
       -0.0020504817 0.017155001 -0.016600668 0.007292067

conv2d_1/bias f4 [32]
000000 15 8c 7c bc 16 09 aa 3b 4b d8 81 3c 90 b3 43 bc
       -0.0154142575 0.0051890714 0.015850207 -0.0119446665
000010 7e b8 bd 3c 20 a2 a7 3c 24 60 9f bb e1 2b d2 bb
       0.023159262 0.02046305 -0.004863756 -0.006413922
000020 8c 11 9f bc 3d c4 4c 3c ba d8 86 3c 99 0f d4 bb
       -0.019417547 0.012497959 0.016460765 -0.006471586
000030 c4 12 e7 bc 90 41 9a 3c 11 26 8b 3c c3 2d 0d bd
       -0.02820719 0.01883009 0.016985925 -0.03446747
000040 4b b0 2a bc cb 19 10 bc b7 1c 66 bc 73 6f ae bc
       -0.010418008 -0.008795212 -0.014044932 -0.021293378
000050 8b 2e 33 bb 6b 1a 35 bc f1 ef 07 bd 2f 55 06 3d
       -0.0027340974 -0.011053662 -0.03318781 0.03279608
000060 48 f2 cf 3c d4 4f fa bb db b4 e8 bb 97 0f 3c bc
       0.025384083 -0.007638911 -0.007101638 -0.011478326
000070 93 b1 1a ba 5b 8c 2b 3c b3 d0 5a bc 00 00 00 00
       -0.00059010944 0.010470475 -0.013355422 0.0

conv2d/bias f4 [32]
000000 a3 1f d7 3c 2a 40 91 bd dc 5a c7 3c 91 bd e5 3c
       0.026260203 -0.070923164 0.024335317 0.028044494
000010 34 a9 60 bb f0 86 10 bd a5 45 08 bc 33 89 0b bd
       -0.003428054 -0.035284936 -0.008317386 -0.03406639
000020 c9 e0 6e bc 4e bc d3 3c 5f 5e 05 bd 81 aa 60 bd
       -0.01457996 0.025846627 -0.032560702 -0.054850105
000030 df a2 1c 3c f1 71 83 3c 3c d0 0a bd 77 94 a3 3b
       0.009560316 0.016045542 -0.033889994 0.0049920636
000040 8f f0 46 bc 5a 76 e6 3c 74 6d 38 3d 4a b4 06 3d
       -0.012142315 0.028132606 0.045026258 0.03288678
000050 84 b8 13 3c 43 77 54 3c c3 55 fc 3c aa b1 7a 3b
       0.00901616 0.012967887 0.030802613 0.0038252869
000060 c2 00 fc 3c d0 e9 9d 3c 09 11 2a bc 57 e8 96 3c
       0.03076208 0.01927653 -0.010380038 0.018421335
000070 4e e7 0a 3c ed c4 e4 3c b7 4c 1f 3d a3 ac c0 3c
       0.008477999 0.027925933 0.03889152 0.02351982

sequential/dense/MatMul f4 [128, 32]
000000 25 db 29 3d 38 eb 0a be 92 6a b6 bd 48 cc bb 3d
       0.041468758 -0.13566291 -0.089070454 0.09169823
000010 14 49 c9 bd bb d6 c3 bd 21 7d 0f be 40 d1 df bd
       -0.09828392 -0.09562441 -0.14012577 -0.10928583
000020 f8 7c 41 3e 20 63 27 3e e0 e8 a0 3d dc 50 fa bd
       0.18895328 0.16346407 0.078569174 -0.12222454
000030 e4 ea 18 3e 2b 9b 16 be 40 e5 64 3c 81 a8 13 be
       0.14933354 -0.1470763 0.013970673 -0.14419748
000040 35 48 2a 3d a9 f5 ab 3d 1e fd 19 3e 12 a0 01 bc
       0.04157277 0.08396465 0.15037963 -0.007911699
000050 55 0a 0a bd 18 96 7f 3d 89 54 64 3d f6 8c b4 bd
       -0.03370126 0.062399 0.05574468 -0.08815949
000060 c3 57 0b 3e 95 93 c6 3d 6e 26 fe bd 02 28 22 3e
       0.13607697 0.09696118 -0.12409674 0.15835574
000070 8c dd d2 3d f9 51 a1 3d fc 11 6a bc 56 60 f3 3d
       0.10296163 0.07876963 -0.014286514 0.11883609
000080 5d aa 5f 3e 6d 6d dc 3c e6 98 7a 3d 87 5d 09 3e
       0.21842332 0.026907647 0.06118097 0.13414584
000090 e8 41 22 3e fb d4 16 be 4f 9d a7 bd e6 a4 23 be
       0.15845454 -0.14729683 -0.08184301 -0.15980873
0000a0 29 96 cc bb d8 bb 16 be c6 12 83 bd 60 c8 e6 3d
       -0.0062434864 -0.14720094 -0.06400065 0.11268687
0000b0 8e 9e ab bd 49 73 50 3d 34 5e 31 3d 29 e9 3a 3e
       -0.08379851 0.050891194 0.04330273 0.18253006
0000c0 9f 76 ce 3c 29 9a a1 bc c3 5b 3f 3e 00 18 06 bc
       0.025203047 -0.01972683 0.18687348 -0.008184433
0000d0 fc 67 d8 3a 9e c5 9c bc 6e c7 74 bd f3 cf b9 3b
       0.0016510482 -0.0191372 -0.059760503 0.0056705414
0000e0 a6 aa ac 3d 87 e6 98 bd 68 02 31 3e 14 da 23 3e
       0.08430986 -0.074658446 0.17286074 0.16001159
0000f0 c6 84 36 be 3e ed 91 bd 63 3a 54 be fb 52 7e 3c
       -0.17824087 -0.071253285 -0.20725398 0.015522714
000100 5e b7 3d be b2 e9 a9 bd 2d 9c e6 bd 48 b0 f4 3d
       -0.1852698 -0.08296527 -0.11260257 0.119476855
000110 ac 4d 23 be 42 ad 3e be d8 f5 0b be c7 fc 91 bd
       -0.15947598 -0.1862078 -0.13668 -0.071282916
000120 31 b7 1f be 1b 0b 63 3d 63 ba e9 3d 58 f2 9c bc
       -0.15597226 0.055430513 0.114125036 -0.019158527
000130 8c 48 48 be 9d 83 aa ba a6 2a 07 3e cd 60 80 3d
       -0.19558924 -0.0013009195 0.13199863 0.06268463
000140 55 13 18 bc e0 aa 23 bc 00 f9 70 ba f0 02 41 bc
       -0.009281953 -0.00998947 -0.00091923773 -0.0117804855
000150 33 bf 89 bd 5e 37 ac bc 4d 8d 40 be 50 f4 c5 3d
       -0.067259215 -0.021022495 -0.18803902 0.096657395
000160 e5 3c 33 3e 0c 1f 6b bd 3b b9 e8 bd 93 0f a3 bd
       0.17503698 -0.057402655 -0.11363455 -0.07961955
000170 aa f6 15 be 92 68 9a 3d 60 f8 fc bd 8c 4a 05 be
       -0.14644876 0.075394765 -0.12352061 -0.13016719
000180 99 1d 1f 3e c6 58 c3 3d dc 04 27 3d 9c e6 35 3e
       0.15538634 0.095384166 0.04077612 0.17763752
000190 fc 86 3c bd f4 ad dc 3d c1 73 52 bb 99 d9 42 3e
       -0.04602717 0.107753664 -0.0032112452 0.1902832
0001a0 7a fa ba bd 5b d5 0f bd 0c dd db bd a0 d6 ba bb
       -0.09129806 -0.03511558 -0.10735521 -0.005701855
0001b0 46 b7 b2 bb 60 39 fe 3d 4a 3d f5 3d e3 36 cd 3d
       -0.005453977 0.12413287 0.119745806 0.100202344
0001c0 f0 d4 81 bd ed 38 1d 3e 0c 9c 02 be ee 1d ae 3d
       -0.06339443 0.15353747 -0.1275484 0.085018024
0001d0 76 39 1f be 0b de db 3d 8f 43 87 bd 88 65 a0 bd
       -0.15549263 0.10735711 -0.06604683 -0.078318655
0001e0 a1 68 09 3d af 8b d2 bd 45 5b 03 be 80 b9 c5 3d
       0.033547048 -0.10280549 -0.12827785 0.09654522
0001f0 cf 6b 8d 3d b3 5a 29 3e ec 65 42 3d db 3a 46 3d
       0.069053285 0.16538505 0.04746048 0.048395973
000200 dd 0d 3d be cd 93 e6 3d d4 1f 84 3d 5d 0b af bd
       -0.1846232 0.112586595 0.06451383 -0.08547089
000210 16 89 1c 3e f9 ed 90 bd 7c 4c e8 bc 22 bd 0d be
       0.15286669 -0.0707664 -0.028356783 -0.1384168
000220 2e 3d 36 3e 7e 31 2e 3e 5f 1d 1c bd 84 03 57 3d
       0.17796776 0.17011067 -0.038113948 0.052493587
000230 05 06 21 3e d6 96 14 3e e8 4b 5a bd 47 6d b0 3d
       0.15724953 0.14510664 -0.053295046 0.08614593
000240 ef 58 1c be 44 d3 04 3d 15 7b 18 3e 76 af 6f be
       -0.152683 0.03242804 0.14890702 -0.23406777
000250 e2 5a 02 be 94 19 30 bd d8 d5 7a bd 0a cb 23 3e
       -0.12729982 -0.042993143 -0.061239094 0.15995422
000260 52 3a cb 3d 5c 4b ad bd 2b 68 e0 bc 5e 74 c3 bd
       0.09923233 -0.08461639 -0.027393421 -0.0954368
000270 fd b0 d8 bd 23 9b fd 3d f3 82 03 3d 00 4c 1e 3e
       -0.10580633 0.123831056 0.032107305 0.15458679
000280 49 ad 0e bd bd e7 b1 3d de 9f 32 3e 42 c5 42 3e
       -0.034833226 0.08686779 0.17443797 0.1902056
000290 70 8a 05 be 7e 50 e2 bd a9 a5 17 be b2 84 f0 bc
       -0.13041091 -0.11050509 -0.14809288 -0.029360149
0002a0 61 ec b0 3d f8 c1 65 3e a6 71 ad 3d 00 30 1b 3a
       0.08638836 0.22437274 0.08468942 0.00059199333
0002b0 de 2d 52 3d 7f 5f 11 3c b8 78 88 3c 32 33 03 bd
       0.051313274 0.008872866 0.016659126 -0.032031246
0002c0 d7 c1 c2 bd 59 f9 1f be e3 1e 41 be 1e 8e 14 be
       -0.09509628 -0.15622462 -0.18859439 -0.14507338
0002d0 5e 9b b8 bc e7 63 33 be 7e a7 e1 3d b6 f0 6a bd
       -0.022535022 -0.17518578 0.11018275 -0.057358466
0002e0 eb ca 39 3e e6 34 2f 3e 52 55 08 be 10 e0 dc 3d
       0.18143813 0.17110023 -0.13313797 0.10784924
0002f0 00 cb 73 bd 2b 5a 3e 3c 96 a0 4b 3e 39 79 82 3d
       -0.059519768 0.011618177 0.19885477 0.06370778
000300 83 a2 d5 3d 2f f8 9a 3d 60 ab fd bd 8f ed 2b be
       0.10431387 0.075668685 -0.12386203 -0.1678984
000310 c0 fb 3d bc 70 72 6f 3d 43 da 3a 3e 02 a3 8c bd
       -0.011595666 0.058458745 0.18247323 -0.06867029
000320 c4 17 3c 3e c7 71 43 be 1a 7d d4 3d 68 bf 0a 3e
       0.18368441 -0.19086371 0.10375424 0.13549578
000330 6e 6b ae bd 11 a4 b1 3d 53 36 90 bd 05 53 32 3e
       -0.08516584 0.08673871 -0.070416115 0.17414482
000340 0c e0 82 bd 49 a4 6a 3d e9 d5 b6 3d 0c 94 c0 3d
       -0.0639039 0.05728558 0.08927519 0.09403238
000350 69 c9 4c be 16 cc 1c 3e 54 da e7 3d 5e 8a aa bd
       -0.19998707 0.15312228 0.1132094 -0.08327173
000360 bf 62 fc bd cf 6b 25 bd 6c 63 57 3e 6a bd 22 be
       -0.12323522 -0.040386017 0.2103402 -0.15892568
000370 35 4a 2a 3e b7 e6 23 3e d5 46 16 3e 50 6c 1e 3e
       0.1662987 0.1600598 0.14675458 0.15471005
000380 62 01 f3 3d 95 8c 17 3e 61 f8 47 3d 8b b6 15 bd
       0.11865498 0.14799722 0.048820857 -0.03655104
000390 d5 a7 08 3e 8a bc f1 bd 27 4b 3a be a3 12 01 3e
       0.13345273 -0.11803539 -0.18192731 0.12604766
0003a0 7a f7 31 3e a4 1a 1e 3e 3d fe 9f 3d ee db 05 3e
       0.17379561 0.1543985 0.07812164 0.13072178
0003b0 71 8c 2f be f0 9c 0a be 08 13 df 3d a9 55 83 3d
       -0.17143418 -0.1353643 0.10892302 0.06412823
0003c0 d7 7f 10 3e 8b 09 ed 3d fe 0b 8c 3d e6 89 77 3d
       0.14111267 0.11574086 0.06838225 0.060434245
0003d0 ef 8a 0a be c4 af 04 be 20 a4 0f 3e 08 9c 2f bd
       -0.13529561 -0.12957674 0.14027452 -0.042873412
0003e0 35 63 59 bd 8c fc 9d bb bc f3 36 3d 77 13 32 3e
       -0.053073127 -0.0048213657 0.044666037 0.17390238
0003f0 39 c3 2c be a0 27 f5 3c 33 89 b3 bb 2d 01 d9 bd
       -0.16871347 0.029926121 -0.005479002 -0.105959274

sequential/dense_1/MatMul f4 [4, 128]
000000 ee 1b fe 3d 53 b2 de 3d 25 88 2d 3e 3b 31 01 be
       0.12407671 0.108738564 0.16946466 -0.12616436
000010 97 a0 42 be 74 b2 35 bc ee d2 81 be b2 f8 00 bd
       -0.19006573 -0.01108991 -0.2535624 -0.031487174
000020 ba 50 58 be d9 23 46 3e 87 c0 46 3e 15 42 7b be
       -0.21124545 0.19349612 0.19409381 -0.24536927
000030 80 76 14 bd 69 ab c9 3c ef 5e b6 bd b0 bf 9f 3d
       -0.036245823 0.024617868 -0.08904826 0.07800233
000040 25 43 3a 3e e2 9b 87 be 64 86 e5 bd 50 0c 83 3d
       0.18189676 -0.26486117 -0.112072736 0.06398833
000050 d2 97 32 be 3e 6a 06 3e 25 1f 52 bd 6b 12 08 be
       -0.17440727 0.13126466 -0.051299233 -0.13288276
000060 47 9d 15 3e a1 f9 a6 bd 6c 89 30 3e 74 70 54 bd
       0.14610778 -0.08153082 0.17239922 -0.051865056
000070 ad da 75 bd bc 5b 54 3e db 31 e7 bd 6f 3f c6 3d
       -0.060023 0.20738119 -0.11288806 0.09680068
000080 74 00 3d be 0a 85 b1 3d 65 6b f2 bd f6 9b d6 bd
       -0.18457204 0.08667953 -0.1183689 -0.10478966
000090 30 d5 85 bc 12 cb 50 3d 70 2d 89 bd e1 b5 4e 3e
       -0.016337007 0.050974913 -0.0669812 0.20186569
0000a0 ef e6 7f 3d 7a 1e 0a 3e 08 c2 5f be e6 93 37 3d
       0.062476095 0.13488188 -0.21851361 0.04481878
0000b0 94 97 38 be 59 07 e9 bd c0 ed 99 3d 4d d3 c1 3d
       -0.18026572 -0.113783546 0.0751605 0.094641306
0000c0 7a 66 1f 3e 7c 62 77 3e 8a b4 79 bc 93 f4 5a 3c
       0.15566435 0.24158663 -0.015240798 0.013363975
0000d0 fd 84 6b 3c c0 4f 0e 3e 74 ab 71 be 83 d8 b9 3d
       0.014374969 0.1389761 -0.2360056 0.090744995
0000e0 46 93 78 3d b6 1a f4 3c b4 74 f2 bc aa ab 6c 39
       0.060687326 0.029797893 -0.029596664 0.00022570664
0000f0 30 78 a0 3d fa 92 6a 3d c0 8c 54 3e 4b ef b2 3c
       0.07835424 0.057269074 0.20756817 0.02184262
000100 d5 7b 4b be ba 83 1c 3e 1b b0 3e 3e dd 4e 13 3d
       -0.19871457 0.15284625 0.18621866 0.03596388
000110 c0 11 bf 3b 3d e3 f0 bd 3b 46 aa 3c 51 06 9b 3b
       0.0058309734 -0.11762092 0.020785442 0.0047309776
000120 a9 4b 83 3c 16 09 74 bd 36 d5 c3 bc 9a 9d 2f 3e
       0.016027289 -0.059578978 -0.023905378 0.17149964
000130 17 cb 29 be 43 9c 42 be 68 c8 b2 3d e2 eb 2d 3d
       -0.16581379 -0.19004922 0.08729631 0.042461284
000140 07 c3 f5 bd b3 0d ba bd 99 6b 3b be 2d 0a 81 3d
       -0.12000089 -0.09084644 -0.18302764 0.06300769
000150 e3 f0 75 be 6f 1a a1 bc cf 62 52 3e aa 8f 8d 3d
       -0.24017672 -0.019665925 0.20545505 0.06912167
000160 37 f0 97 3c 29 4b 03 be 9a 5d 3a be 71 c0 dd 3d
       0.01854716 -0.1282164 -0.18199769 0.10827721
000170 f7 d9 77 3e 3b 20 79 be 19 c3 05 3e ad 50 27 be
       0.2420424 -0.24328701 0.13062705 -0.16339369
000180 38 63 c1 3d fc 65 26 be b3 5a cc 3d a5 09 3b 3d
       0.094427526 -0.16249841 0.09978237 0.045663495
000190 2e 0c 12 3d b0 40 b1 bc ef a4 29 be b8 ce 6a 3e
       0.035656147 -0.02163729 -0.16566823 0.2293042
0001a0 05 9c ec bd f6 72 32 be 14 23 5b 3e d3 73 05 bc
       -0.11553196 -0.17426667 0.214001 -0.00814529
0001b0 c5 ab f1 bd fb 05 61 3e b8 12 ec 3d e8 02 84 be
       -0.118003406 0.21974938 0.11527008 -0.25783467
0001c0 46 88 ef 3d cb c5 e4 3c 55 7b 98 3d 09 19 76 3d
       0.11695914 0.027926346 0.07445399 0.06008247
0001d0 c5 c2 08 3e de 10 a9 3d 46 7d d0 3d 10 15 34 bd
       0.13355549 0.0825517 0.10180144 -0.0439654
0001e0 50 ca 4e be de 7c bc bd 2b 55 8a bd 0c 95 ff 3d
       -0.20194364 -0.09203504 -0.06754526 0.124796
0001f0 40 48 0e 3e b9 bf 18 be 53 2c 30 3e 20 05 31 bd
       0.13894749 -0.14916886 0.17204408 -0.04321778
000200 2b 96 78 be e0 df 2c 3e f1 4c da 3d 50 17 b4 3a
       -0.24276035 0.16882277 0.10659207 0.0013739858
000210 af 79 a2 bd 8c 5e 7d be d7 c2 21 3d d3 7e 4a 3e
       -0.079333656 -0.24743098 0.039492454 0.19774942
000220 73 9f 2e 3e 62 77 0f bd b8 0c 62 3d ff bd 65 bd
       0.17053013 -0.03502596 0.05518791 -0.056089398
000230 b3 1f 44 be 60 93 aa bc 1c 57 ed bd bb ed c9 3d
       -0.19152717 -0.020822227 -0.115888804 0.098597966
000240 2d 43 f7 bd bf 8d 2e 3c a1 ce cb 3c 7c b0 5b be
       -0.1207336 0.010653912 0.024878802 -0.21454042
000250 ab 3f 95 3d 0e 99 80 be 0b e6 3e 3d a5 8e 85 3d
       0.07287534 -0.2511677 0.046606105 0.06521348
000260 96 cc 82 bc eb 9f 9f bb cc 0d 11 be 37 02 46 3e
       -0.015966695 -0.0048713586 -0.1416542 0.19336782
000270 e5 fb 1f 3e 1a bd 5b be bb 95 38 bd 65 a9 b2 3d
       0.15623434 -0.21458855 -0.04506467 0.08723716
000280 8d a7 86 3d 83 c0 2b be 70 5c 8a 3c 4d 2c db bd
       0.065749265 -0.16772656 0.01688978 -0.10701809
000290 57 45 06 3e 17 bb aa 3d 13 ea f7 bd fa ab 9b bd
       0.13112389 0.08336466 -0.12105193 -0.07601161
0002a0 04 3d 4e be dd c7 2c be 9a 9f 87 3d a6 6a 0e 3e
       -0.20140463 -0.16873117 0.066222385 0.1390787
0002b0 3c 93 99 bd 73 68 d7 bd 15 fe d4 3d 8d 34 8f be
       -0.07498786 -0.10517969 0.10400025 -0.2796978
0002c0 0b af 95 bd 4b 51 01 3e 0d f7 ed 3c 83 fa 82 3c
       -0.073087774 0.12628667 0.029048467 0.015988594
0002d0 1d 27 87 bd ce 7b 07 3e 24 d6 06 3e 93 12 98 3d
       -0.06599257 0.13230821 0.13167626 0.07425418
0002e0 46 30 3f 3d b0 8c 3b be 8b 51 2d bd 04 ce 07 be
       0.046676897 -0.18315387 -0.042314094 -0.13262182
0002f0 d8 c8 8e 3d c9 6d 65 3d c0 0c 47 bd 1e dc 43 be
       0.06971902 0.056012902 -0.048596144 -0.19126937
000300 74 ab 46 3e 67 90 28 3e 0b b7 ba 3d b4 a1 45 3e
       0.19401342 0.16461335 0.09116944 0.19299966
000310 4c 72 c9 bd 2e 4f 80 3d fa 2d 45 3e 00 41 0b bc
       -0.098362535 0.06265102 0.1925582 -0.008499384
000320 6f ea d9 3d 3d 6e c4 bc 10 cb 72 be ef 1f 9f bd
       0.10640418 -0.023978347 -0.23710275 -0.07769763
000330 d8 5f 6e 3d 24 92 c0 bd d0 63 28 3e 57 87 29 be
       0.058196872 -0.09402874 0.16444325 -0.16555534
000340 1b 47 38 3e 3d 97 0a 3d 68 a1 2a bd 1b c3 ed bd
       0.17995875 0.03383564 -0.041657835 -0.11609479
000350 9f 78 19 be 94 75 ca bb 19 37 26 be 39 62 e5 3c
       -0.1498742 -0.006178567 -0.16231956 0.028000938
000360 95 55 44 be 2e 28 12 3e f6 1e 1a 3e a0 b6 29 3e
       -0.19173272 0.1427314 0.15050873 0.16573572
000370 a7 29 cc bc e6 1c cd 3d 5f 90 35 3e 95 e7 ea bd
       -0.024922205 0.100152776 0.17730854 -0.11469952
000380 c0 fd 14 3e 25 21 35 be f9 7c 04 3e 42 33 4a be
       0.14549923 -0.17688425 0.12938298 -0.19746116
000390 fc 64 22 be 76 be 34 3e 9e 3b 70 bb 6e 90 39 bc
       -0.15858835 0.1765078 -0.0036656628 -0.011325939
0003a0 ab ad 75 3d d1 dd d5 3d 75 f3 a3 be ef ff 3e 3e
       0.059980076 0.10442699 -0.3202168 0.18652318
0003b0 90 0b 5e bd 00 93 0d 3e 8e e6 b5 3d 97 14 42 3d
       -0.054210246 0.13825607 0.088818654 0.047382917
0003c0 9d e2 ef bd 39 74 4a 3d 96 f1 90 bd 1d b4 30 3d
       -0.11713145 0.049427245 -0.07077329 0.04314052
0003d0 1f 63 22 be c4 07 c7 bc 15 0c c1 bd d2 c3 35 3e
       -0.15858124 -0.024295695 -0.094261326 0.17750481
0003e0 70 8c a3 3d 02 c7 4f 3e 33 7c f8 3d c8 aa dc bc
       0.07985771 0.20290759 0.12133064 -0.026936904
0003f0 6e a0 2c 3e b9 2e 44 3e 8f d8 a2 3d c1 ea 07 3c
       0.16858074 0.19158448 0.079514615 0.008295716

sequential/conv2d_1/Conv2D f4 [32, 4, 4, 32]
000000 e1 30 88 3b 8c 6d 89 3c 0e 5f 9d 3d 1a 0d 84 bb
       0.0041562174 0.016775869 0.07684146 -0.004029882
000010 3c fa 85 bd 1e 8f 10 bd 10 b2 f0 ba 69 75 63 3d
       -0.06541869 -0.035292737 -0.0018363614 0.055531893
000020 de fd a7 ba f9 cf 8b 3d 20 ec 86 3d 5a 63 22 bd
       -0.0012816747 0.06826777 0.06588006 -0.03964553
000030 c5 ff 85 bd 08 84 ca 3d eb 6d 08 3d 48 96 ac 3c
       -0.06542925 0.09888464 0.03330795 0.021067753
000040 65 e8 58 bd d4 c6 24 3d b9 8e 51 bd d7 c8 82 bc
       -0.052956004 0.04022868 -0.0511615 -0.015964909
000050 73 9f 01 bd 82 8d 4d 3d 4b 06 ec 3b 87 af 0d bd
       -0.031646203 0.05018378 0.0072028986 -0.034591224
000060 49 b0 10 bd a6 5c 8d 3d c0 0c 46 bd bf 03 50 bd
       -0.03532437 0.06902437 -0.048352003 -0.050784823
000070 ba 56 d8 3d cd 17 44 bd 6b 20 b5 bd 42 78 24 bc
       0.10563417 -0.04787426 -0.08844074 -0.010038437
000080 b4 05 6c 3d a3 9c 66 bd 7d 4d 6e 3d 9f 02 e4 bc
       0.057622626 -0.056301724 0.058179367 -0.027833281
000090 5e 85 84 3d 0c 88 52 bd 7c 2b c8 3c 4f f8 81 3d
       0.0647075 -0.051399276 0.024434797 0.06346189
0000a0 7b 30 12 3c b7 60 71 3d 31 8b 35 bd c4 6d e1 bc
       0.008922691 0.058930125 -0.044322196 -0.02751816
0000b0 23 06 72 3d 39 0f e6 3d 69 e1 0c 3d f7 51 b6 3d
       0.059087884 0.11233372 0.034394655 0.08902352
0000c0 1e 43 9f 3b 31 2c 96 bd 76 5f 85 3d 55 30 cb bc
       0.004860296 -0.073326476 0.06512348 -0.02480332
0000d0 69 05 2f 3c df 24 8d b8 8a 9c f0 bc b3 35 90 3d
       0.010682442 -6.730272e-05 -0.029371519 0.07041492
0000e0 e4 ef c5 bc 40 2f 49 3d 57 0e 4d 3d dd fa bc 3d
       -0.02416224 0.049117327 0.050062504 0.09227536
0000f0 6e 65 ac 3d 31 c5 ca bc 8e 9d c4 3d 69 96 25 3d
       0.08417784 -0.024752231 0.09600364 0.040426645
000100 7e 6a 48 bd 64 ef 80 3d 12 4e 18 bd 47 83 8f bc
       -0.048929684 0.0629566 -0.03718383 -0.017518653
000110 4d a5 25 bd ad c9 8b 3d e0 b0 e5 3c 66 aa 4f bd
       -0.040440846 0.06825576 0.028038442 -0.050699614
000120 b7 13 92 bd ac a2 c0 bc b0 5f 2b bd 3a 94 51 3c
       -0.071326666 -0.023515068 -0.0418393 0.012791688
000130 89 08 5e bd 4c ec 14 3d c3 b9 26 bc fe 67 75 bc
       -0.05420736 0.036358163 -0.010176125 -0.014978407
000140 b3 ad 6f 3d 9e d0 03 3d 25 52 b0 3d c8 18 32 3d
       0.05851526 0.032181375 0.08609418 0.043480664
000150 0f 8c 95 3d 7a 4e 93 3d e4 09 ca 3d cf e7 79 3b
       0.07302105 0.071927026 0.09865168 0.0038132553
000160 db d8 04 bd 05 b8 1a 3c e2 6b d5 bc 28 13 85 3c
       -0.032433372 0.009443288 -0.02605242 0.016244486
000170 a0 cb 6f bc e6 a4 26 3d 8a f2 a2 3d 34 0f a6 bd
       -0.01463595 0.040684603 0.07956417 -0.081083685
000180 07 cb 83 3d 0c a0 01 bd d1 ed 8f 3d f7 6e 88 bc
       0.06435209 -0.031646773 0.07027782 -0.016654475
000190 a0 10 6b bb a3 c7 50 3d cc e5 54 bd 1c b1 ac 3d
       -0.0035868064 0.05097164 -0.051976964 0.084322184
0001a0 16 84 32 3d fb 6c d4 bc a3 6c dd 3c e4 9e 3a bd
       0.043583 -0.025930872 0.027029341 -0.045561686
0001b0 70 93 e6 3c d2 db f3 bc d8 fd 9a bc 43 1a c3 3d
       0.028146476 -0.029767904 -0.01891987 0.095264934
0001c0 b7 aa f8 bb ac 23 ca bc 77 f0 8e 3d 52 0c 88 bd
       -0.00758871 -0.024675213 0.06979459 -0.06642975
0001d0 28 37 eb bc b3 1d 7b 3d af ad 90 3d 14 dc f1 bc
       -0.028712824 0.06130762 0.070643775 -0.029523887
0001e0 d6 3c da 3b 6f db b0 3c 9c e0 64 bd 18 de 5b 3d
       0.0066600842 0.02158901 -0.055878267 0.053678602
0001f0 e7 9d bd 3c 2a 46 2e bb e2 81 12 3d 5a c7 7c bd
       0.023146583 -0.0026592114 0.035768397 -0.061713554
000200 bb ff 02 bc 7d 00 27 bd a6 2d cd bc 96 b9 89 3c
       -0.007995541 -0.04077195 -0.025046181 0.016812127
000210 60 d1 3f bc 6a 7e e9 bc fc c1 47 3d 36 0a 47 3c
       -0.011707634 -0.028502662 0.048768982 0.012148431
000220 21 b3 86 bd 09 29 8b 3d a1 fb 75 3d 17 e5 2b bd
       -0.06577135 0.06794936 0.060054425 -0.041966524
000230 ca 95 f1 bc a5 fc 8d 3d 5f d8 25 3d 7c 90 dd 3d
       -0.02949037 0.06932954 0.04048955 0.10818574
000240 76 7e 0a 3d b6 63 04 3d 51 50 75 bd 7f 32 d3 3c
       0.03381201 0.032321654 -0.05989105 0.025780914
000250 a4 ac 0b bd 2a 09 9d bc 98 24 e5 3c f7 73 ed 3d
       -0.03410019 -0.019169409 0.02797155 0.11594384
000260 33 3c 68 bd 01 fe 8f 3c 9c 67 82 bd 75 3e a0 bc
       -0.056698035 0.017577173 -0.06367418 -0.019561032
000270 8a 82 9b 3c 56 f7 f1 3c 21 17 37 3d 26 74 e2 ba
       0.018983144 0.029536884 0.04469979 -0.0017277047
000280 da 8a 49 3d 65 de 55 bc 64 bd 59 3d 1e d4 bd bd
       0.049204685 -0.013053511 0.053159133 -0.09268974
000290 c0 42 d7 bc e9 09 0c bd 33 e5 1b bd 5d d5 66 3d
       -0.026276946 -0.03418914 -0.03806038 0.056355823
0002a0 54 b3 c1 bc 46 fe 2a 3d 42 7c d3 3c 7d 8e 61 3d
       -0.02364508 0.0417464 0.025816087 0.055067528
0002b0 92 2c 08 3d 5a cf 8e 3d 04 f7 13 bd a1 93 c4 3d
       0.03324563 0.06973143 -0.036124244 0.095984705
0002c0 d5 ae ee ba 06 3c 9a 3c bf 0e 51 3d 24 56 a6 3d
       -0.0018210063 0.01882745 0.051039454 0.08121899
0002d0 da 09 95 3b a2 2f 71 3c 97 2b 42 3d d6 b4 a7 3b
       0.0045482935 0.014720829 0.04740485 0.005117993
0002e0 43 15 84 bd 99 f3 f2 3c 59 39 04 3b 6e 68 02 bc
       -0.06449368 0.029657172 0.0020175783 -0.007959468
0002f0 b0 25 3e bb 73 97 6a bd d8 b8 48 3d 7b 0e e6 3c
       -0.0029014163 -0.05727334 0.049004406 0.028083077
000300 cc c2 2f bd 45 72 3c bd ff 76 d9 3c 9e 48 c1 bd
       -0.042910382 -0.046007413 0.026546 -0.09437679
000310 6e c5 8b bd 18 3b 50 bd 40 ca eb 3c 70 2e a0 3d
       -0.06824766 -0.050837606 0.028782964 0.07821357
000320 d6 16 7e bd b5 62 c1 bc 57 93 05 3d 6c f3 74 3d
       -0.062033497 -0.023606637 0.032611217 0.059802458
000330 29 78 7e 3d 61 42 07 ba 1e 66 01 3d 32 df 84 3d
       0.062126312 -0.00051597325 0.031591527 0.064878836
000340 a2 20 40 bd 49 53 01 3d b3 ca 29 bd 07 57 78 bd
       -0.04690612 0.031573568 -0.041453075 -0.06062987
000350 89 45 99 3c 59 19 31 3d a8 32 03 bd 48 f6 1b bd
       0.018709915 0.043237064 -0.03203073 -0.03807667
000360 0b 09 a8 bd 66 70 01 bd 58 93 30 3d 87 e4 46 bd
       -0.0820485 -0.031601332 0.043109268 -0.048557784
000370 a2 30 dd 3d e6 0e 1a bd aa 3e b5 3d 11 bf 25 3d
       0.108002916 -0.037611865 0.08849843 0.04046542
000380 a4 5c 89 3d 92 28 ed bc c9 83 ab 3d f3 8f 04 3c
       0.06707123 -0.02895001 0.083747454 0.008090961
000390 f4 33 44 3d 4f 9f 1e bd b8 71 54 b9 c5 ba 0e 3d
       0.04790111 -0.038726147 -0.00020260259 0.034846086
0003a0 c6 5f a2 3c b7 ab a2 bc 42 e2 42 3d a1 60 5e bc
       0.019821059 -0.01985727 0.047579058 -0.013572843
0003b0 b2 31 82 bd 6d 4f 65 bd 8f c6 4c bc ae 3d 1a bd
       -0.06357135 -0.05598395 -0.012498512 -0.03765648
0003c0 e6 d2 83 3b d6 25 f1 bc cb 5d 68 bd 21 f3 7e bd
       0.004022944 -0.029436987 -0.056730073 -0.062243585
0003d0 3d f9 ae 3d 1f 57 ff 3c bf e0 b9 bc ac 5d 86 3d
       0.08543632 0.031169472 -0.022690175 0.06560835
0003e0 af eb 9a 3b 47 f3 bb 3d aa 5a 21 bd b6 5a 91 bb
       0.0047278027 0.09177261 -0.039393105 -0.0044358624
0003f0 0c f2 72 3d 46 47 20 3d 78 61 2b bd 1d b4 b0 3c
       0.059312865 0.03913047 -0.041841 0.02157026

sequential/conv2d_2/Conv2D f4 [32, 4, 4, 32]
000000 98 b2 48 bb 9a 93 b2 bd 71 ad 52 bd f5 d0 10 bd
       -0.0030624028 -0.08719559 -0.051434938 -0.035355527
000010 9d bd 9f 3d ce 1c 7a bd 1b 84 37 bd 0d 97 6c 3d
       0.07799838 -0.061062627 -0.04480372 0.05776124
000020 4a ef a2 bd 5f fd fe bb 10 4b 59 3d 2e 69 5c bd
       -0.07955797 -0.007781669 0.0530501 -0.053811245
000030 0b 6d fb bc 4d c7 bd bb 7b 20 16 bd 7f f7 c5 3c
       -0.030691644 -0.005791581 -0.03665207 0.024165867
000040 44 53 05 3c 60 44 bf 3b 25 b7 b8 bd ed 3f db 3c
       0.008137528 0.0058370084 -0.09019307 0.02676388
000050 43 31 fe bc 8a d0 b1 bd df ee 38 bd b7 cc 78 3d
       -0.03102935 -0.08682354 -0.04514968 0.060742106
000060 7f 53 16 3d 1e a6 80 3d a2 dc 52 3d e0 20 d2 3d
       0.03670072 0.06281684 0.051479943 0.10260177
000070 93 c6 2a bd 91 c6 c5 3b 3d 71 fd bb 68 28 59 bc
       -0.04169328 0.006035634 -0.0077344463 -0.0132542625
000080 0f cf 09 3d ee 0b 8d bc 7b bb b7 bd 74 1d d2 3c
       0.033644732 -0.017217603 -0.08971306 0.02564881
000090 70 47 5e bd 0d 10 59 3d 76 84 5d bd 29 36 1f 3d
       -0.054267347 0.052993823 -0.054081403 0.03887001
0000a0 14 6c aa bd 58 78 83 3c 02 30 35 bd ca 51 74 bb
       -0.083213955 0.016048595 -0.044235237 -0.0037280195
0000b0 28 46 37 bd a7 29 ac 3c 2c 36 c2 3b f2 02 3f bd
       -0.04474464 0.021015955 0.005926868 -0.04663367
0000c0 ab de 3d bd d0 e3 3d 3d f6 82 94 bb e1 e2 29 bd
       -0.04635493 0.046359837 -0.0045322133 -0.041476134
0000d0 a9 d0 1b 3d f4 58 5e 3c 88 7f a9 bd 2a eb 7c 3d
       0.03804079 0.013571013 -0.08276278 0.061747707
0000e0 e3 3a f7 bc c7 2b 6a bd 6c f3 ae bc 3f 26 8b 3d
       -0.030179447 -0.057170656 -0.021356307 0.06794404
0000f0 81 12 2d 3d 1e 60 d1 3c dd cd 48 3d 08 f2 ed bc
       0.042253975 0.025558528 0.04902445 -0.029046074
000100 71 75 0c 3d f0 c0 27 bc 44 6e c4 3c e6 e2 4b bd
       0.03429169 -0.010238871 0.02397836 -0.049776934
000110 20 5c 89 3c ab 52 53 3d f0 72 72 3d 6c 96 0e 3c
       0.016767561 0.05159251 0.059191644 0.008702856
000120 a8 cc 8f 3d 36 dc 82 bb 8a 81 8e 3d 2b af 1f bd
       0.07021457 -0.0039935363 0.06958301 -0.038985413
000130 a7 c2 62 3d 37 86 13 3c 41 20 0b 3d ff 7e 50 3d
       0.055361416 0.009004167 0.033966307 0.050902363
000140 0c 11 8b bc ac 23 82 3d 51 ac 00 3d a3 53 21 3c
       -0.016975902 0.0635446 0.031414334 0.009846601
000150 14 82 00 3d bb c4 05 3c dc 94 0e 3c 2d 43 81 3d
       0.031374052 0.00816458 0.008702483 0.06311641
000160 cf f1 29 3d 23 5d 0e bc 47 69 27 3d 57 49 39 3d
       0.041490372 -0.008689198 0.040871885 0.045235958
000170 4b b0 c5 3c a6 a3 e8 3c 2f ff a0 bc 73 7a 66 bd
       0.024131915 0.028398346 -0.019652931 -0.05626912
000180 ff fc 6c 3c ba 33 b3 3c 3f 52 b8 bc 00 c0 94 3c
       0.014464616 0.021875251 -0.022500155 0.018157959
000190 cd 4a 8c 3d 4e 43 72 bd 17 5b 85 3d 7a 96 0c 3d
       0.068502046 -0.059146218 0.06511515 0.034323193
0001a0 e8 c5 8b 3d 47 f9 95 3d 22 51 d8 3c 59 00 e7 bc
       0.06824857 0.073229365 0.026405875 -0.028198408
0001b0 80 0f 5d bd ac 56 a9 3d c8 c8 21 bc bf 02 f2 3b
       -0.05396986 0.082684845 -0.00987453 0.0073855813
0001c0 fe 58 2c bd fb c4 22 bd 1e c7 19 3d 2c ad aa 3a
       -0.042077057 -0.039738636 0.03754341 0.001302158
0001d0 f1 6d 13 3d ae 02 81 3c 15 13 6d bd 97 bd 68 3c
       0.03599352 0.015748348 -0.057879526 0.014205358
0001e0 6c bf 5c 3d bb 21 5c bd 86 ee 8a bd 47 a1 96 3d
       0.05389349 -0.053743105 -0.06783776 0.0735498
0001f0 3c 82 d4 3d d5 aa b1 bc d3 ac 70 3d 20 2e 1a bb
       0.10376403 -0.021687904 0.058758568 -0.0023526028
000200 2c 60 56 3d 31 8e 71 bd 03 42 97 bd de 47 bf bc
       0.05233781 -0.058973495 -0.073856376 -0.023349699
000210 a0 17 35 bd 5a 6e 3d bd 6b 5f ef bc 94 fd 21 bd
       -0.044211984 -0.046247818 -0.029220304 -0.03954847
000220 00 53 79 bd 41 8f 05 bd 0d be 5c 3d 85 9c e4 3b
       -0.06087017 -0.03260732 0.053892184 0.0069766664
000230 d2 98 ce bb 42 34 27 bd f2 16 be bc 32 40 e3 bc
       -0.0063048387 -0.04082132 -0.0232043 -0.027740572
000240 13 0a cd 3c f3 39 65 bd 6a 6c ab 3c 3d 4f c7 3b
       0.025029218 -0.055963468 0.02092572 0.006082444
000250 a8 67 5a bd d4 eb 84 3d ae 2b 1b bd aa 8f 01 3d
       -0.05332151 0.06490293 -0.037883453 0.03163115
000260 c3 c7 90 bd 2c 60 e5 3b d4 6d 87 bd 8b 1e e4 bc
       -0.070693515 0.00699999 -0.06612745 -0.027846595
000270 f5 4d 05 bd aa b6 bc 3d 6e 5a 2c bd ac 56 cd 3c
       -0.03254505 0.09214528 -0.042078428 0.025065742
000280 0d 79 9f 3c 9c 2f 6a bd ab e9 68 3d f8 04 fd 3c
       0.019466901 -0.05717431 0.05686347 0.030886158
000290 bc 0b 98 3d 05 aa f0 bc 6a fb 95 bd ab 40 ec bc
       0.07424113 -0.029377947 -0.07323344 -0.02883943
0002a0 98 7d 55 bd 22 f8 d8 3d 44 e4 82 bc 5c 7a 10 3d
       -0.05212173 0.105942026 -0.015977986 0.03527294
0002b0 bb 53 67 bd 0e 9e 15 bd b2 da a1 bd 59 9a df 3b
       -0.056476336 -0.036527686 -0.07903041 0.0068238196
0002c0 db 1f 6a 3d af f8 81 bd 79 81 7a bd 6a 1a 95 bd
       0.057159286 -0.06346261 -0.06115863 -0.07280429
0002d0 12 5b 19 3d 83 a5 01 3c d4 d0 f0 bb 3c a3 9f bb
       0.037440367 0.007912996 -0.007349113 -0.004871754
0002e0 57 6c 7a bc 97 57 fc 3c 09 59 99 bc 68 c2 4e bd
       -0.015284619 0.030803485 -0.018719213 -0.05047837
0002f0 df 3c 2e 3d c6 3e ed 3c 80 41 89 3d c4 c8 22 3d
       0.04253852 0.028960597 0.06701946 0.039742246
000300 84 1c 4e 3d 5a a1 8e 3c a2 ae 3e bd c5 3f 8e bd
       0.050320163 0.017410923 -0.04655326 -0.06945757
000310 ad 63 a2 3d 90 00 a5 3c 4e f0 15 bd 28 6a 08 bd
       0.07929168 0.02014187 -0.036606126 -0.033304363
000320 22 a7 ae 3d e9 8b 9b 3d dc b1 1a 3d af 2e 48 bd
       0.08527972 0.07595045 0.037767276 -0.048872646
000330 b7 bd 71 3a 6a af e4 3d be 81 32 bd 87 6e 53 3d
       0.000922169 0.1116627 -0.043580763 0.05161908
000340 a4 87 0f 3d bc 6e e0 bc 86 20 91 3d 09 a5 85 bc
       0.035041466 -0.027396552 0.070862815 -0.016314046
000350 ff 65 36 bd 36 67 02 3d da c8 98 bd da 73 ef 3d
       -0.044530865 0.03183671 -0.074601844 0.11692019
000360 34 34 86 bc fc bd 5d 3d e1 4b 58 bd fa 27 96 bc
       -0.016382314 0.05413626 -0.05280674 -0.01832961
000370 40 29 2f bb 23 df 5a 3d 78 49 6c bc 9a 18 ac bc
       -0.0026727468 0.053435456 -0.014421813 -0.021007825
000380 64 53 6f 3d f6 a5 a8 3c 4b f9 92 bd 0f f5 02 bd
       0.058429137 0.020586949 -0.07176455 -0.031971987
000390 fb 9b 81 3c 1a d9 72 bc e3 e4 00 3b 7f 62 2c 3d
       0.015821448 -0.014822269 0.0019667677 0.04208612
0003a0 5f dd 18 bd 85 91 7c 3d 0c 3c ba 3c 34 6a 9b bd
       -0.03732049 0.061662216 0.02273371 -0.07588616
0003b0 ad 24 39 bd f1 a0 11 3d b1 4a 95 3c 2e a5 81 3d
       -0.045200992 0.035553876 0.018224092 0.06330334
0003c0 23 bd 79 bd f8 f7 ac 3c a7 35 13 3d d1 cc bc 3b
       -0.06097139 0.021114334 0.03593984 0.0057617207
0003d0 e1 28 27 3d 19 79 33 3d 33 d6 97 bd e7 ee 1b 3d
       0.04081047 0.04381666 -0.07413902 0.038069632
0003e0 bc 92 9f 3d e9 fa 72 3d 98 94 d1 3c e5 a3 c0 3c
       0.07791659 0.059321318 0.02558355 0.023515651
0003f0 3f 10 9c 3d 40 06 b8 bb bc df 08 3c c8 22 39 3c
       0.07620286 -0.0056159794 0.008354124 0.011299796

sequential/conv2d/Relu;sequential/conv2d/BiasAdd;sequential/conv2d_2/Conv2D;sequential/conv2d/Conv2D;conv2d/bias f4 [32, 4, 4, 3]
000000 e6 67 2e b9 03 b8 07 39 3a 95 9c b8 d4 4a bd 39
       -0.00016632638 0.00012943153 -7.466455e-05 0.0003610464
000010 f0 03 eb 39 39 86 80 b9 0f ab 9a 39 b0 31 81 39
       0.00044825627 -0.00024514066 0.00029500618 0.00024641817
000020 b1 9e 11 b8 23 a7 12 b8 ae 05 cc b8 c0 1a ef b8
       -3.4718487e-05 -3.496477e-05 -9.728536e-05 -0.00011401391
000030 1c 02 ca b9 5a 0f 0f 39 19 e1 ab 39 e9 82 a3 39
       -0.00038530014 0.00013643262 0.00032783372 0.00031187318
000040 f2 91 a5 39 63 d2 63 b9 18 a4 e6 b9 60 6b d9 38
       0.0003157999 -0.00021726782 -0.00043991278 0.000103673665
000050 c1 7d 46 b9 72 cd 03 b9 fd e3 b3 b8 67 45 e9 38
       -0.00018929598 -0.00012569668 -8.577851e-05 0.00011123233
000060 c3 ca 46 39 61 c7 16 b9 f8 af 96 b9 5c a4 a4 b9
       0.00018958286 -0.00014379389 -0.00028741336 -0.00031402975
000070 67 81 41 b9 b8 d2 0a b9 45 5e 40 b9 2c d8 97 39
       -0.0001845412 -0.00013239204 -0.00018345665 0.00028962025
000080 0e d3 b6 39 d2 15 a2 b9 90 92 8b b9 e7 8a 37 b9
       0.00034870993 -0.00030915305 -0.00026621344 -0.00017503985
000090 aa 61 ba b9 5d 6e 6e 39 c1 f3 83 38 86 b9 b1 b9
       -0.0003554945 0.00022738562 6.2919695e-05 -0.00033898297
0000a0 7d 61 0e b8 43 f0 dd b9 94 c1 b9 39 4f 75 e4 b8
       -3.394623e-05 -0.00042331414 0.00035430177 -0.000108937376
0000b0 89 ef 93 39 05 22 b7 39 c5 20 c2 39 2e eb 39 b9
       0.00028216493 0.00034929827 0.0003702698 -0.00017730586
0000c0 31 6d c6 39 3b f8 aa 39 c0 2b d0 39 56 1e ed b9
       0.00037846857 0.00032609873 0.00039705448 -0.00045226765
0000d0 9c 38 9f b9 0c cd 80 39 85 fe 56 38 1f 09 65 39
       -0.0003036902 0.00024566834 5.1258616e-05 0.0002184254
0000e0 dd 94 00 b9 ce e4 4c 38 a5 64 a5 b8 bc 86 62 39
       -0.00012262487 4.885048e-05 -7.8865596e-05 0.00021603232
0000f0 5f 50 27 b9 90 58 a5 b7 12 a1 91 b9 5c f5 e5 b9
       -0.00015956302 -1.9710773e-05 -0.00027776562 -0.0004386109
000100 8e a3 bc 37 17 e3 48 39 49 d6 36 b9 cb d9 e9 b8
       2.2487508e-05 0.00019158084 -0.000174367 -0.00011150873
000110 de 3f 87 39 ee 88 79 b9 bb fe 62 b8 41 e1 48 39
       0.0002579679 -0.00023797501 -5.4119835e-05 0.000191574
000120 16 5e d8 b8 99 38 ad 39 6b a7 00 38 60 4b ee 38
       -0.000103172075 0.000330393 3.06735e-05 0.00011362764
000130 c7 f4 52 39 47 47 a0 39 d6 a5 17 b9 4b 88 9e b9
       0.00020118347 0.00030570684 -0.00014462261 -0.00030237655
000140 65 0a 26 39 83 05 68 b8 26 aa eb 38 54 ce c3 39
       0.00015834866 -5.5318244e-05 0.00011237366 0.00037347025
000150 ec 4e 37 b9 7a 80 bd 38 58 7d b3 b8 16 1c be 39
       -0.0001748164 9.036153e-05 -8.558732e-05 0.0003626055
000160 0c ed e3 b7 93 73 fd 38 08 8e b6 39 1b d1 88 38
       -2.7170892e-05 0.000120855075 0.00034819567 6.523934e-05
000170 e1 04 e0 39 ab f2 a3 39 dc bf 84 39 73 99 64 b9
       0.00042728244 0.00031270584 0.00025319948 -0.00021800939
000180 19 4f 69 b9 d1 10 84 38 f2 56 e2 39 7b 03 c2 b9
       -0.00022250078 6.297383e-05 0.00043170858 -0.00037005157
000190 5a 34 84 b9 c8 28 d5 38 5e 97 a3 36 31 98 dd 38
       -0.00025216007 0.000101642276 4.8754e-06 0.00010566449
0001a0 4a bf ab 39 76 dd 0b b9 13 19 a5 b9 19 7c 17 b9
       0.00032758183 -0.00013338574 -0.00031489934 -0.00014446712
0001b0 12 57 ad 39 b3 01 cd b8 09 ba b1 39 89 64 b7 b9
       0.00033062004 -9.775478e-05 0.00033898678 -0.00034979385
0001c0 96 2d 30 b9 5d 32 8d 39 4f 0c 1d 38 a4 d1 1b 39
       -0.0001680165 0.0002693114 3.744318e-05 0.00014860049
0001d0 d5 06 44 39 76 84 8f b8 a7 6a 81 b9 95 b2 9b b9
       0.00018694562 -6.843444e-05 -0.0002468426 -0.00029696958
0001e0 1c 90 e9 b8 f5 53 bc 39 1c 19 de b8 21 49 e7 b7
       -0.00011137148 0.00035920707 -0.00010590462 -2.75714e-05
0001f0 2b 5c b6 b9 f0 b0 60 b9 05 42 e2 39 52 ef b3 39
       -0.00034782416 -0.00021428219 0.00043155267 0.00034319848
000200 84 1f 8a 39 da 28 d9 39 b4 c5 17 b9 e8 af 95 39
       0.00026344892 0.00041419902 -0.00014474132 0.00028550555
000210 b8 c1 e8 b8 58 46 5c b9 0a da 0e 39 4b eb b4 b9
       -0.00011098705 -0.0002100704 0.00013623401 -0.00034507582
000220 09 05 4b b9 35 96 83 39 27 ef 20 b9 8b d7 a1 b9
       -0.00019361464 0.0002509818 -0.0001534788 -0.00030868905
000230 30 30 ad 38 52 6d dd 39 b9 99 b7 39 1b 65 3b 39
       8.2582585e-05 0.00042233855 0.00035019012 0.00017871374
000240 68 14 72 38 cd bd a0 b9 ec 90 87 b8 19 32 e6 39
       5.77163e-05 -0.0003065899 -6.4642954e-05 0.00043906344
000250 f5 29 27 b7 d0 88 db b9 b7 e4 4d b9 eb 10 de b9
       -9.963745e-06 -0.00041872868 -0.00019635526 -0.00042355745
000260 cf af f8 38 df 59 01 3a b8 81 db 39 ac 7a 7b 39
       0.000118583084 0.00049343513 0.00041867583 0.00023982924
000270 e3 42 a0 b9 6d 67 ba 37 7f b8 8c b9 c4 19 79 b9
       -0.00030567413 2.222109e-05 -0.0002684034 -0.00023756089
000280 47 b4 40 39 65 ea 7f b9 fa 4a 8d 39 0b 46 0c b9
       0.00018377705 -0.00024406014 0.00026949478 -0.00013377533
000290 ed 67 4f 39 d9 d5 84 39 28 10 40 38 0e 2e dc b9
       0.00019779774 0.0002533633 4.5791414e-05 -0.00041995983
0002a0 a2 ef 83 39 bd 9d 95 b9 2b 88 81 b8 94 ea aa b9
       0.00025164807 -0.0002853702 -6.1765626e-05 -0.000325997
0002b0 13 bf c5 b7 f9 d8 ec b9 a4 93 f7 39 07 3f a3 b9
       -2.3573206e-05 -0.00045175085 0.00047221512 -0.00031136742
0002c0 64 01 a0 b8 b7 3f eb 39 06 93 69 39 9c cf 22 b9
       -7.6296536e-05 0.00044870164 0.00022275382 -0.00015526864
0002d0 b3 79 2c b7 5c 91 d6 b9 3a f9 00 ba 8d eb af 39
       -1.0280334e-05 -0.00040925562 -0.000491995 0.000335541
0002e0 47 9e bf b8 7b b1 ed b9 d2 6c 7d 39 c8 39 66 39
       -9.137071e-05 -0.00045336396 0.00024168499 0.00021956034
0002f0 c0 d9 62 39 ed ec 90 b9 8f 78 90 39 1f ae 9f b9
       0.00021634158 -0.00027642344 0.00027555643 -0.00030456574
000300 35 68 af b8 db 12 3a 39 12 15 dd b8 88 67 85 38
       -8.36406e-05 0.00017745366 -0.00010542026 6.3612184e-05
000310 42 08 a0 b9 e9 15 cc b9 a2 4c 43 b9 7a d7 af b8
       -0.0003052373 -0.00038926236 -0.00018625197 -8.384786e-05
000320 8f 39 32 39 e1 d4 be b8 ab 33 10 b8 b8 7c 67 b9
       0.00016996845 -9.099558e-05 -3.4380395e-05 -0.00022076338
000330 c8 78 fa b8 32 97 b7 38 88 01 a2 b8 fb 6c c6 b9
       -0.00011943426 8.754282e-05 -7.725047e-05 -0.000378467
000340 5a 3d ab 39 ec db 97 b9 c1 e0 8d 39 5b 3e 80 39
       0.00032661372 -0.0002896482 0.0002706107 0.0002446052
000350 25 44 c6 b9 03 0b 7c b8 38 ad 2d b9 74 73 ba 38
       -0.00037816275 -6.0091737e-05 -0.00016563095 8.890676e-05
000360 bf 47 fc 38 75 ff 87 b8 c4 79 83 37 3d 9f ae 39
       0.0001202966 -6.484884e-05 1.5673118e-05 0.00033306508
000370 58 a5 8c b9 70 a9 c6 b9 1b ad 92 39 c5 e2 79 b9
       -0.00026826072 -0.00037891744 0.00027976264 -0.00023830969
000380 6a 87 c3 b9 00 cd c0 39 9d e9 bc b9 54 fa 06 b9
       -0.0003729419 0.0003677383 -0.0003603221 -0.0001287249
000390 ec f1 f4 b8 b8 85 68 39 df b3 b7 b9 9e f0 8e b9
       -0.00011679888 0.00022175058 -0.00035038494 -0.00027263624
0003a0 ac 17 d1 b9 19 f3 c3 b9 c3 fb ad b9 cd b4 ab 38
       -0.00039881223 -0.0003737442 -0.00033184708 8.187592e-05
0003b0 b2 70 db 38 9a 89 a0 b8 db f1 a3 b9 f8 90 48 b9
       0.00010463725 -7.655025e-05 -0.0003126998 -0.00019127491
0003c0 eb 51 6a b9 3e cb 0b b7 5a b1 2d b9 b0 84 be 39
       -0.00022346496 -8.332367e-06 -0.00016564634 0.00036338484
0003d0 21 a0 8d b9 80 d4 a1 b8 7e 33 90 b9 2c 02 cf 39
       -0.0002701292 -7.7166595e-05 -0.00027504185 0.00039483735
0003e0 97 09 c5 b9 ec fa 97 39 f7 d5 87 b8 d9 97 b1 b6
       -0.00037581913 0.00028987916 -6.477156e-05 -5.2926885e-06
0003f0 80 ac 42 b9 06 41 b3 b8 63 d7 95 39 bd 33 5a 39
       -0.00018565543 -8.547497e-05 0.0002857997 0.00020809374
